Model_badr/discriminator34_params.pt (torch_old, 169417 bytes, 7 tensors)

model.0.weight f4 [256, 2]
00000000: 08d9 4b3e 069d a73e 7bc6 c03e 9edf 25be
00000010: 08a0 9dbd f7d9 89be b4a6 793e a4c2 003e
00000020: a23c d33e e56e 91be 6c42 893e 5eaa 0cbf
00000030: 9495 48bf a617 babe 0c41 5f3e 7507 9abe
00000040: b48a 673e d958 abbe 1f85 083f e564 f2be
00000050: 1eaf 97be a296 1d3f 3600 913e 8718 fc3e
00000060: 3868 8b3d 6055 cdbd 8684 aabf 8328 8b3a
00000070: 0365 b03f 9896 763f ffc2 6abf 0f9a 4b3e
00000080: 674e 03bf b8f1 f6bd 54d0 8fbf 1087 c4bf
00000090: bb01 7cbd 3e68 ca3e 8695 243f 1372 813d
000000a0: 9950 5b3f 66fa f63e 393d ffbe f383 11bf
000000b0: 9cf0 563f 14db 683f f27d 11bf f7a7 6bbd
000000c0: 53d9 743f 314d a13d 9f08 2b3f 7ae1 013f
000000d0: 9317 2bbf 12b1 6ebe c091 1f3e fec3 3e3f
000000e0: 9463 533e 7314 3fbf 216b 04bf b80c 643e
000000f0: 1690 2fbe 9816 463f 3863 2b3f 378a 693e
00000100: 4f74 b63c a5b3 853e 4c2f 08be 04c5 18be
00000110: 002c a03f 8b3e 963e fa53 883f d725 4e3f
00000120: 69ab 33bf cac3 943e 30eb 583d 60ae a4bd
00000130: 6423 a4bf 6d52 c2be 27d0 efbe f7fc b03e
00000140: f386 0cbf 9f45 a3be 8077 603c 4699 f9be
00000150: 634c abbd 7971 fe3e 4fd7 b3be 379d 73be
00000160: e94b 85be 6aa1 cbbe 9000 a3bf d59f fe3d
00000170: b826 d5be e715 1c3f 1fb3 813f c4f5 e83e
00000180: 23df 97be 1c79 18bf 8073 f1bc c08a 243e
00000190: 28c7 153e c0bf 803d 109f d8be 0f19 2a3f
000001a0: 565f 94bf 4ea0 a9be 9203 023f 5db8 013f
000001b0: aa4a 0a3f c48a 153f a0d3 eebe 32c2 9e3e
000001c0: b2ad a73c 2979 52bf f58b 7ebf ef34 5c3e
000001d0: de22 cabf 34ab 26bd da1a 1f3f 4320 52bf
000001e0: 7175 913f 5d06 2e3f 7727 ee3e 1fa8 4a3f
000001f0: 00de 95be e029 f0bd e263 fc3e 48cc 21bf
00000200: ba9c 05bf 8dff e1bf 028d 153f 65b9 693f
00000210: c9a5 733f 9040 e43e 521f bebe e98b c5be
00000220: 540a 7e3e e7bc a7be 97cf d5bf c16d ddbf
00000230: cc07 0bc0 d7bc 3ebf 6a69 523f 28e8 c53e
00000240: f6c5 d93e 206c b2bd 6258 8f3e e7be 88bf
00000250: 84e1 83bf ce9e f63d da84 853f eb8a 6c3f
00000260: 525e 0a3e 006d 293e 4d5f 633d 7f25 0bbf
00000270: 0605 d8be 32bc d43e d4ab 3fbe c46b 823e
00000280: c831 873f f293 b23e 98fd 153f 05db 1f3f
00000290: bff9 913f be4a 7b3e 569d 12bf 5fba 1fbf
000002a0: e421 073e b05f 773d 947c 19bf 6161 0e3f
000002b0: 9862 07bf ecab 01bf 06f4 b33e bfbf b1be
000002c0: b67f a63d 04f9 0f3f 9d11 113f 8f06 873e
000002d0: 9813 aa3f 16b7 553f 8327 043d b19f 553f
000002e0: 74f2 39be b292 61be 0279 da3e 7210 01bf
000002f0: 8fe8 06c0 bed6 febf ec0b df3d d00a aa3c
00000300: 0662 933e 333e e8be 7f32 3a3f 9b7d 7a3e
00000310: eae7 09c0 f670 c2be a256 5b3f b1d6 89be
00000320: 9e56 5d3e df8b 903f 5d98 5c3f 6834 323e
00000330: 68c6 013f 6007 eabe c884 883d 4baa bbbe
00000340: e44a 10c0 481d 07c0 ac7f 71be 7746 c8be
00000350: 66b3 9dbe 004b d0bd 97b8 703f 7743 8abe
00000360: 6fed c8be 20e5 a2bc d082 efbd 529d 853e
00000370: 9f14 08bf 8bc7 25bf 9f7b 19bf e323 c1be
00000380: 7c1b 49bf 038d 753f adb1 e1be 8f40 2bbf
00000390: 93e5 703f 8f58 1e3f 21b6 ef3e 91c2 b43e
000003a0: b0f0 3f3e 8045 053e 540c e7be 84cd 64bf
000003b0: 41a7 6c3f 9db4 203f 73cc f83e 6bfc e3be
000003c0: b4c4 643e 0f8b 303f 5a11 273f 680f 75be
000003d0: 5b7a a3bf 841c c8bf 8c58 8dbf 2e1e b7bf
000003e0: 007d 6d3b 704e a73d 362d b2be 81fb eb3e
000003f0: 49f6 eb3e 4d00 b93e d5ac 9ebe 62de f0be
0.1990701 0.32736987 0.3765143 -0.16198584 -0.07696539 -0.26924106 0.24379998 0.1257425
0.41257197 -0.28404918 0.26808488 -0.5494746 -0.7835324 -0.36346167 0.21802157 -0.30083814
0.22611505 -0.33466223 0.53328127 -0.473426 -0.2962579 0.6155797 0.28320473 0.49237463
0.068069875 -0.100260496 -1.3321693 0.0010616932 1.3780826 0.9632354 -0.9170379 0.19882987
-0.5129151 -0.12057823 -1.1235452 -1.5353718 -0.061525088 0.39532655 0.64290655 0.06320586
0.8566986 0.48237914 -0.49851397 -0.56841964 0.8396089 0.90959287 -0.568328 -0.05753323
0.9564411 0.07876051 0.6681003 0.50734675 -0.66832846 -0.23309734 0.15582943 0.7451781
0.20643455 -0.7464058 -0.51725966 0.22270477 -0.17144808 0.77378225 0.6694827 0.22806631
0.022272257 0.2611362 -0.13299292 -0.14918905 1.2513428 0.29344591 1.0650628 0.8052649
-0.70183426 0.29055625 0.052958667 -0.08041072 -1.28233 -0.3795351 -0.46838495 0.34567997
-0.54893416 -0.31889054 0.013700366 -0.4874975 -0.08364179 0.49695948 -0.35125205 -0.23790441
-0.26034477 -0.39771587 -1.2734547 0.12432829 -0.41631103 0.6097092 1.0132788 0.45500004
-0.29662427 -0.595598 -0.02947402 0.16068554 0.14626753 0.062865734 -0.42308855 0.66444486
-1.1591594 -0.33130115 0.507867 0.5067194 0.5402018 0.58414865 -0.46645832 0.31007534
0.020468567 -0.82216126 -0.9943231 0.21504568 -1.5791891 -0.040690616 0.6215035 -0.8208048
1.1363965 0.6797846 0.46514484 0.7916278 -0.29270935 -0.11726737 0.49294955 -0.63202333
-0.5219227 -1.7656113 0.58418286 0.91298515 0.95174843 0.44580507 -0.3713327 -0.38583305
0.24808627 -0.3276131 -1.6703976 -1.7299119 -2.172351 -0.74506897 0.821921 0.38653684
0.42533845 -0.087120295 0.27997118 -1.0683259 -1.0303197 0.12042008 1.0431168 0.9239947
0.13512543 0.16545486 0.055510808 -0.5435409 -0.42191333 0.41549832 -0.18717891 0.25472844
1.0562067 0.34878498 0.5859008 0.6244357 1.1404341 0.2454023 -0.57271326 -0.62393755
0.13196522 0.06039399 -0.59955716 0.5561734 -0.5288482 -0.50652957 0.35147113 -0.34716603
0.08129828 0.5623934 0.566675 0.2637219 1.328723 0.8348249 0.032264244 0.83446795
-0.18158895 -0.22028616 0.42670447 -0.5041572 -2.1079443 -1.9909284 0.10890946 0.020757109
0.28785723 -0.45359954 0.727333 0.24461977 -2.15478 -0.37976807 0.85679066 -0.2692161
0.21615073 1.1292685 0.8616999 0.17402804 0.5069337 -0.45708752 0.06665951 -0.3665336
-2.254571 -2.1111622 -0.23583859 -0.3911626 -0.30800933 -0.10170555 0.9403166 -0.27004597
-0.39243647 -0.019884646 -0.116948724 0.26096588 -0.53156465 -0.64757603 -0.59954256 -0.37722692
-0.7855756 0.9591829 -0.44080868 -0.66895384 0.941003 0.6185388 0.4681864 0.35304692
0.18744159 0.13014793 -0.45126593 -0.8937609 0.9244271 0.62775594 0.48593482 -0.44528517
0.22340661 0.68962187 0.6526085 -0.23931658 -1.2771715 -1.5633702 -1.1042647 -1.4306085
0.0036237836 0.08169258 -0.34800118 0.4609032 0.46086338 0.36133042 -0.30991235 -0.47044665

model.0.bias f4 [256]
00000000: d758 82bd 6c5e 01be d4ab 26bf 1a9b 16bf
00000010: 897d a6be 8f8c a6be dd5e cc3e 7462 14be
00000020: ed5c 94be c4e2 ad3c 574e 9ebe 1c0c 05bf
00000030: 6273 0bbf aa21 aa3e fb89 f4bc 8273 a03e
00000040: d67d c3be 32b5 d3ba b25a e2be 0a16 b5be
00000050: 32ad c83d 0e99 c63e eb38 0dbd 0afb 29bc
00000060: a460 333e cf4b 9abd d8d4 89bd 344a ddbe
00000070: dd53 cd3e f633 34bf 76e5 26be 0a6c e3be
00000080: f0a0 aebe 7d51 11bf 4c77 25bd 7886 85bd
00000090: 2e60 a1be 80de acbe 880d c4ba c824 dabd
000000a0: 72d1 933e 48ee f0bd b0f3 0ebf a7e8 6f3e
000000b0: 50b7 a7be 845f f8bb 1a3b 1abf f0a4 82bd
000000c0: eebf 603e 9241 cfbe e530 b8be 9e85 ce3e
000000d0: 26af 61bc 8eeb 38bf bc4a d33d d501 08bf
000000e0: fac4 9f3e 6347 ab3e cbf8 003e e8dd 843d
000000f0: 6ee0 a3bc 2033 753e c931 33bf 6563 14bf
00000100: aa82 543d faae 76bc 06e8 20bd 5e7e 26bf
00000110: a8e6 cdbe 3fc7 22bc 2da8 7c3c 07fb 81bd
00000120: 2003 15bf 7af2 f43d d429 9d3e 16d6 91bc
00000130: eb76 4abe cf9d 053e fbc6 1dbf e268 ffbd
00000140: 5a6e b93d 94e3 9a3e 0374 83bd 7ef6 afbe
00000150: c3af 2abf 6704 52be 600a 8fbe dbc3 e8be
00000160: da5d 01bf 873e 5f3d 60f6 b7bc de2a a5bd
00000170: 3823 3ebe 69f7 31bf c4eb 133c f1c8 b4bd
00000180: a2f3 e9be 96f3 b2bd 7b60 0dbc b416 5a3e
00000190: 2691 11bd e7c3 923c 4602 693d c58a 33bf
000001a0: 17cc 6b3c 3346 c0be 1aed febe 5953 5b3e
000001b0: c301 e0be 09a8 2dbf 6f1e b2be d050 2bbd
000001c0: 9403 27ba 628f b93e 9bb0 1abd ca21 08bf
000001d0: 7d5d 28bf ad1c 763e d5f6 26bd 5c31 6bbe
000001e0: 43c7 29bd 0572 c8bc e7bf 66b9 3978 89bc
000001f0: 958e 21bf b031 f3be 6753 84bd 76a7 a2be
00000200: c8b2 1f3e 47b4 a7be 6d58 2abe 4c31 b3b9
00000210: eca6 e9bb 902c f5bd cf54 b1bc d86c f3bd
00000220: dccb 8b3e 67b3 bcbd 5e3e c4be 9da2 16bf
00000230: 362b 8f3d 6aa1 1fbd 4689 82be af0a 2ebd
00000240: 7f23 16bf 5125 0abd cfd0 33bd b387 8b3e
00000250: 8adb 453d 7079 74be 4152 a8ba 2b66 b5bd
00000260: 838d 1dbe 98c6 f0bd 4229 a5bd d00b b9bc
00000270: 4cb0 c0be 2957 63be c093 443e fb1f 5f3e
00000280: 4bff ce3e 95b3 f0be 6e49 34bf 6444 8bbe
00000290: 74b3 3a3e 605d ebbd c359 9cbd cf41 1fbd
000002a0: 26d0 d8bc addc 9b3d 594d eabe 2858 67bd
000002b0: 4273 91bd 21e8 d6bb 643c 25bf ad51 21bd
000002c0: 2840 483e bfdf aebe 7096 adbd f849 eabc
000002d0: d546 23be a516 52be 73f5 16be de6b 46be
000002e0: f27d 3b3e 9047 12be d414 bcba cf6f 25be
000002f0: 8c4c 643d db53 d43c b351 93ba 0fc7 58bd
00000300: 6895 26bf ba24 94be 2b56 07bd 1219 1abf
00000310: ae17 2ebf 6036 7ebd 1214 e4bc b5b1 32bb
00000320: 6ba8 24bf 4f79 cbbc 8f65 abbc f3a7 22bf
00000330: f3e8 69bd 0653 bbba 58cf dbbe 710a 9abc
00000340: 3f85 59bc 1211 15bd 485e 69be 3bc3 5cbd
00000350: f294 0abf 0577 aabe cf66 97be 47b3 363b
00000360: 0294 aabc 3f90 c13e af71 54bd e54b 933e
00000370: 53e9 97be d5bd d3be 064d dabe a795 183e
00000380: 4aaf 37be 089a 453d 47e9 7e3e 7af6 16bf
00000390: caba 9dbe 5886 8cbe 8a85 36bd 01aa ddbe
000003a0: 5078 0bbf f364 7dbe 5d5f babc 187c dfbd
000003b0: c135 5dbd 4e42 c5be e4b2 77be 7bd7 8bbd
000003c0: 97c5 e0be 7323 debc 9a3e 053f 1180 0cbc
000003d0: 5162 0d3e 2049 23bf b2bc dcbd 4f6d 8a3d
000003e0: 9c6f 163e 5072 933e f0d7 8abc 6f3a 24bb
000003f0: 70f7 f6bd 0d22 63bd a026 d7bd 6521 e2be
-0.06364601 -0.12633675 -0.6510594 -0.58830416 -0.3251765 -0.32529113 0.39916125 -0.14490682
-0.28977147 0.021226294 -0.30919144 -0.519716 -0.54472935 0.3322881 -0.02985095 0.31338125
-0.38181943 -0.0016152023 -0.4420982 -0.35368377 0.097986594 0.38788646 -0.03447811 -0.010374794
0.17517334 -0.075339906 -0.0673005 -0.43220675 0.40103045 -0.70391786 -0.1629847 -0.44418365
-0.3410716 -0.56764966 -0.040396973 -0.065197885 -0.31518692 -0.33763504 -0.0014957646 -0.10651547
0.28870732 -0.117641985 -0.5584059 0.23428594 -0.32757044 -0.0075797457 -0.6024643 -0.063791156
0.21948215 -0.40479714 -0.35974804 0.40336317 -0.013774669 -0.7223443 0.10316989 -0.53127795
0.3120497 0.334529 0.12594907 0.06487638 -0.020004477 0.23945284 -0.6999784 -0.57964164
0.051882423 -0.015056366 -0.039283775 -0.6503657 -0.4021504 -0.009935199 0.015420956 -0.06346708
-0.58207893 0.11960311 0.30695975 -0.01780228 -0.19771926 0.1304848 -0.61631745 -0.12471177
0.09054251 0.30251753 -0.06418612 -0.34367746 -0.6667444 -0.20509492 -0.27937603 -0.45461926
-0.5053383 0.05450299 -0.022456348 -0.08064817 -0.18568122 -0.6951814 0.009028379 -0.08827389
-0.4569369 -0.087378666 -0.00862896 0.21297723 -0.035538815 0.01791568 0.056886934 -0.7013362
0.0143919205 -0.37553558 -0.4979027 0.21418513 -0.43751344 -0.67834526 -0.34788844 -0.041825116
-0.00063710776 0.36242205 -0.03776608 -0.5317656 -0.6576765 0.24034376 -0.04076274 -0.22968048
-0.041449796 -0.024468431 -0.00022005998 -0.01678096 -0.6310819 -0.47498846 -0.0646122 -0.31768388
0.15595543 -0.32754728 -0.16635294 -0.0003417827 -0.0071304943 -0.1197139 -0.021646885 -0.11885995
0.2730397 -0.09213906 -0.38328832 -0.5884188 0.06990664 -0.038972296 -0.25495356 -0.042490657
-0.5864791 -0.033726994 -0.043900307 0.27251968 0.048305072 -0.2387445 -0.0012841896 -0.088573776
-0.15386014 -0.11756629 -0.0806451 -0.02258864 -0.37634504 -0.22201218 0.19196987 0.21789543
0.40429148 -0.4701201 -0.70424545 -0.27200615 0.18232518 -0.11492419 -0.07634308 -0.03888112
-0.02646644 0.0761045 -0.45762137 -0.056480557 -0.07102062 -0.0065584336 -0.64545274 -0.039384533
0.19555724 -0.3415508 -0.08475959 -0.028599724 -0.15944989 -0.2051645 -0.14742069 -0.19377086
0.18309763 -0.14285111 -0.0014349469 -0.16155933 0.055737063 0.025918892 -0.0011239558 -0.052924212
-0.65071726 -0.2893427 -0.03304116 -0.60194504 -0.6800488 -0.062063575 -0.027841602 -0.0027266566
-0.64319485 -0.024838118 -0.02092245 -0.6353752 -0.057106923 -0.0014291711 -0.42931628 -0.018803807
-0.013276397 -0.036393233 -0.22789872 -0.053897124 -0.5413352 -0.3329393 -0.29570624 0.0027877854
-0.020822529 0.37805364 -0.05186623 0.2876884 -0.296702 -0.41355768 -0.4263689 0.14900838
-0.17937961 0.0482426 0.24893676 -0.58969843 -0.3080657 -0.27446246 -0.044560947 -0.43293765
-0.5448046 -0.2474554 -0.02275055 -0.10912341 -0.05400634 -0.3852715 -0.24189335 -0.06828209
-0.4390075 -0.027116513 0.5204865 -0.008575455 0.13807036 -0.63783455 -0.10778178 0.0675913
0.14691013 0.2879815 -0.01694867 -0.0025059243 -0.12058914 -0.055452395 -0.10505414 -0.44166103

model.3.weight f4 [128, 256]
00000000: a680 143d 0897 433d f048 27bd d62c 72bd
00000010: 585e e1bc e211 5bbd 4fc8 993c c080 60bc
00000020: cedb 3cbd 0492 393d 545e a33c 00c4 1a3c
00000030: 2078 27bb af73 ef3c 6bf2 07bd 6a5d 073d
00000040: 0eaf 40bd c553 283e e4ca 97bc 8435 67bd
00000050: 9188 0bbd b49e 09bd 38ee 02bd 061c 11bd
00000060: 2f21 d83c f3e1 75bd 700d efbb 509a 22bc
00000070: 6547 10bd 6c94 f73c b499 fdbc 4050 5fbb
00000080: 70ea d7bc 92ea 293d ff53 71bc 78a2 dcbd
00000090: b046 fd3b 62d4 483d a5c9 873c f2ed 05bd
000000a0: ec8c 1fbc 004c 15bd d0e5 d63c 0404 9e3c
000000b0: f844 123c cb2c d83c 4af1 0b3d 1a23 78bd
000000c0: 1ad1 1c3d 7085 2abc 6685 41bd 7d83 d5bc
000000d0: e335 8c3d 52dd 6cbd d393 f73c 36a7 123d
000000e0: 5534 993b 7be4 4bbd cfa0 a9bb ed3b e7bc
000000f0: 5dbf 6bbd 9ce6 4abd 1099 34bd e8e8 223d
00000100: 002a e0b9 2bdc f9bc b678 353d e804 a73c
00000110: 483e 553c 728f a03c 47fd c2bc c3f0 a9bd
00000120: 04a0 483d 45c6 bcbc 1f98 81bd 6c45 f2bd
00000130: 148b ae3c 82d9 bdbc 7c92 c9bc 98b7 72bc
00000140: 2c0f 56bd 5129 47bd 8360 72bd d0f7 ba3c
00000150: f053 3abc e035 a33b 1005 9b3c 38d9 573d
00000160: 0ec3 533d 16bb 8bbd 3d3c 21be f3ea ef3c
00000170: e80a 19bd 50f1 043c 03e9 803d be6b 18bd
00000180: c4ae 13bd 99bc b23c 5730 fabc d970 543b
00000190: 544a 69bd 1c5e 6bbc 153c 88bd a287 64bd
000001a0: 8c54 973c 9848 13bd c05a 0f3d 8182 57bd
000001b0: 7a2c 253d 245c a7bc 946e 1dbd 0c18 a53c
000001c0: 123d 383c 1573 79bd 3aab adbd d26b 3a3d
000001d0: 1a00 353d fb67 41bc d286 84bd ac65 06bd
000001e0: c3df 98bd eb48 593d bab2 f73d ec1e 233d
000001f0: f05d 423d a2df 543d 9c2f ccbc e018 41bb
00000200: 25d2 8dbd 2054 b6bc 3f7a 503d 418b 15bb
00000210: 6259 a63d 649e 87bc 6511 213d 509e 493d
00000220: a607 ae3c 489c 4f3c e80e 49bd 6892 413d
00000230: 8c3a bdbc 4814 0a3d f013 733d d579 5e3a
00000240: 64bf 803c a948 8fbd 4b4d 103d 57b0 06bc
00000250: ea4c 14bd bc7e 0f3d 1b33 883d 1d0a a9bd
00000260: 446b e13c 5c44 bebc a7c0 8abd 301d 26bd
00000270: 6007 72bd 98a6 16bd ca15 9cbb cacb e3bc
00000280: 2b58 6cbd 78c0 323c ec05 6b3d e0f0 3b3b
00000290: 6cae 25bd 9e29 163d 2a08 42be ced0 5fbd
000002a0: 6917 c8bd be03 b93c 8280 78bd f400 4abe
000002b0: f279 dd3a 3ae3 b9bd 68e8 423c a400 84bd
000002c0: 8687 adbc 08a9 5ebd e49b c4bc 6b02 713c
000002d0: 120a 55bd 88d5 73bc 00a0 8bb9 a8db 98bc
000002e0: ab40 14bd 3e90 0c3d 6264 443c 98fb 063c
000002f0: ea7d 8fbd e716 e4bb 1820 f13c 5878 0ebc
00000300: 3092 0b3c b890 5dbc 2b11 82be ec36 163d
00000310: f861 c73c 801c 65bd 492d 61bd e848 733d
00000320: e8b9 3abd 66f2 31bd ea24 ffbd 2000 55bc
00000330: 6e7c f4bb 0919 2bbd 3614 00bd 4373 d0bc
00000340: 6022 30bd d59c 88bd 689d e33c c0b7 39bd
00000350: 62ea 4a3d eccb 933c 88d4 25bd 2759 793d
00000360: 9b47 6dbb f48e 283d 9648 61be 60a0 1e3d
00000370: 004a d5bb 20ce 283b a2e7 7fbc 8896 75bc
00000380: 3018 39bd 27f3 a7bd b753 043d 5ac8 64bd
00000390: 629c 0c3d 6e70 6f3d 4a64 bf3c a8a7 f23c
000003a0: 1431 adbc 1874 f8bc c398 c83c c248 053d
000003b0: e0fd 97bc e009 c8bc e864 c23c b273 c9bc
000003c0: aef6 5abd 8b5c 84bd 5819 29bc 83ca 83bd
000003d0: e9ec 8339 a800 c5bc 25a7 1e3d 0bd3 ce3b
000003e0: e1f9 0c3d 5d12 2abd 9aae 6ebe e811 dfbd
000003f0: 1065 83bc a1ee f8bd 6a0b 5bbd cc35 65bd
0.0362555 0.047751456 -0.040841043 -0.05912479 -0.027510807 -0.05348385 0.018772272 -0.013702571
-0.04610806 0.045305267 0.01994244 0.009446144 -0.0025553778 0.029229967 -0.033190172 0.03304807
-0.047041945 0.16438206 -0.018529363 -0.05644752 -0.034065787 -0.033598617 -0.031965464 -0.035427116
0.02638301 -0.060029935 -0.007295303 -0.009924486 -0.035224337 0.03022214 -0.03095708 -0.0034074932
-0.026356906 0.04148347 -0.014729499 -0.10773176 0.007729374 0.04903067 0.016575644 -0.032697625
-0.009738188 -0.036449432 0.02623263 0.019289024 0.008927576 0.026388546 0.034165658 -0.06058035
0.038285352 -0.010407791 -0.04724636 -0.026063675 0.068462156 -0.057828255 0.030221855 0.035803996
0.004675428 -0.049778443 -0.0051766406 -0.028226817 -0.057555545 -0.049536332 -0.044091284 0.039772898
-0.00042755902 -0.030500492 0.044304572 0.020388082 0.013015337 0.01959965 -0.023802413 -0.08297875
0.048980728 -0.023043761 -0.06327843 -0.118296474 0.021306552 -0.023175005 -0.024605982 -0.01481428
-0.052260563 -0.048623387 -0.059174072 0.022823244 -0.011372551 0.0049807876 0.018923312 0.05269739
0.05169969 -0.06822793 -0.15745635 0.029286837 -0.037363917 0.008114174 0.062944435 -0.037212126
-0.03605534 0.021818446 -0.030540628 0.0032415895 -0.05695565 -0.014365699 -0.06652085 -0.055793412
0.018472932 -0.035957903 0.034998655 -0.052614693 0.04032562 -0.020429678 -0.038435534 0.020153068
0.011245029 -0.060900766 -0.084799245 0.04551298 0.04418955 -0.011804576 -0.064710274 -0.032811806
-0.07464554 0.053048056 0.12094636 0.03982441 0.047452867 0.051971085 -0.024925046 -0.002946429
-0.069248475 -0.02225691 0.050897833 -0.0022818597 0.08122517 -0.016555019 0.03932323 0.049223244
0.021243881 0.012671538 -0.04908648 0.047258765 -0.023099206 0.033710748 0.059345186 0.00084867823
0.015716262 -0.06996281 0.035229962 -0.008220754 -0.036206163 0.035032973 0.066503726 -0.08253882
0.027516969 -0.023225956 -0.06775027 -0.04055518 -0.059089065 -0.03677997 -0.0047633396 -0.027807135
-0.05770127 0.010910146 0.057378694 0.0028677508 -0.040449545 0.036660783 -0.18948427 -0.05464249
-0.0977009 0.022584792 -0.06066943 -0.19726926 0.0016897304 -0.09076543 0.01189623 -0.06445435
-0.021182787 -0.05436042 -0.024000116 0.014710049 -0.052011557 -0.014882453 -0.00026631355 -0.018659428
-0.036194485 0.034317248 0.011986824 0.008238696 -0.07006438 -0.006960738 0.029434249 -0.008695684
0.008518741 -0.013523273 -0.25403723 0.03667347 0.024338707 -0.055935383 -0.054974828 0.0593957
-0.04558745 -0.04344406 -0.12458213 -0.013000518 -0.0074611222 -0.041771922 -0.031269275 -0.025445586
-0.043001533 -0.06670538 0.027785018 -0.045341253 0.04953993 0.018041573 -0.04048589 0.060876038
-0.003620601 0.041151956 -0.22000346 0.038727164 -0.0065090656 0.0025757626 -0.01561919 -0.014989503
-0.045189083 -0.082006745 0.0323064 -0.055855133 0.034328826 0.05845683 0.023363251 0.02962096
-0.021141566 -0.030328795 0.024486905 0.03254009 -0.018553674 -0.024418771 0.023729756 -0.0245913
-0.05345791 -0.06462964 -0.010320984 -0.064351104 0.0002516278 -0.024048164 0.03873362 0.0063117794
0.03441799 -0.04152142 -0.23308793 -0.10892087 -0.016039401 -0.1215489 -0.053477682 -0.055959508

model.3.bias f4 [128]
00000000: 0687 babc b1c5 c6bc f6ac fb3b dc3f bebd
00000010: f6c1 56bd b3f3 01bd 7f59 12bd d1fc 75bd
00000020: c5eb fb3b d72e 0dbe b370 30bd 558c 633d
00000030: 7a83 86bd 0363 81bd 2cf1 a93c e89b 1abc
00000040: c09b 1bbd 9147 153d a6d7 d0bc e81a 793b
00000050: 12fc f1bc 0bca 563d 2106 b2bd d3da a5bc
00000060: cccc 5ebd 450d 82bd b00b 223c e786 60bd
00000070: 8b80 2e3d ccbc 5cbd 6fcd 2bbd 85b5 d43c
00000080: e436 4dbd c835 42bc a1ed 15bd ea57 3bbd
00000090: 5e3c 6fbc 7a0d a53c dfac 0abd 5a44 44bd
000000a0: 1c0a bb3c 9e48 b6bd 028e 143c 92eb 52bd
000000b0: 8f08 2cbd 1374 a2bd 4d41 36bd 1fb8 dbbc
000000c0: 95e3 ffbc 7e20 abbb 2aeb 763c bf91 223c
000000d0: 43a6 20bd 1be4 f9bc 3053 54bd f648 3c3c
000000e0: b1ac 72bd 20e2 babc 4c27 8a3c 16ba bd3a
000000f0: 4115 8cbd a5b2 35bd 4d46 83bd c16b e9bc
00000100: 4ec4 98bd 3c20 903c dc61 adbd 7b15 573a
00000110: d8c6 cd3c 7755 a4bd f4b3 9dbd fbfb 49bd
00000120: 1162 32bd 4edf 62bd 9e81 79bd 9620 fc3b
00000130: 7e63 b2bd 9b47 c9bb 300a d6bc f342 46bd
00000140: 6932 96bd 13c8 95bd 75eb 023c 8cca 77bd
00000150: e597 acbc a6a6 393b 8774 a03c 6598 9abc
00000160: 32a0 b1bb b81b ae3c d17d 2ebc fc3f 28bc
00000170: 0b21 cebb a94d 7dbd c1c8 02bc 143e acbd
00000180: 9c40 963c 8632 40bd f5bc 073b c145 09bd
00000190: 29f0 7a3c 37df 57bd e40a 5abc f2d5 81bd
000001a0: ad18 15bd 421a 44bd 79d7 f73b 21da 52bd
000001b0: cebc dbbb 7782 b13b 4e09 85bb 35b4 313c
000001c0: 5f36 43bd 8d29 3abd b37b 08be 543b 813c
000001d0: c793 02bd fa2a 1fbc 1d11 d6bc f6db 7dbd
000001e0: fd75 5dbc 228a 04bd fd28 b4bd 40f8 95bc
000001f0: 8040 6b3d 2e1f 033d 19ef 94bc 4f02 91bd
-0.022769462 -0.024264188 0.0076805307 -0.09289524 -0.05243107 -0.03172655 -0.03572988 -0.060055558
0.007688018 -0.13787399 -0.04307623 0.055553753 -0.06568046 -0.06317713 0.020744883 -0.009436585
-0.03799033 0.036445204 -0.025493454 0.0038010422 -0.029539142 0.052438777 -0.08692575 -0.020245945
-0.05439453 -0.06350187 0.009890482 -0.054816153 0.042603057 -0.05389099 -0.041943964 0.025965462
-0.050101176 -0.011853643 -0.036603574 -0.04573814 -0.014601795 0.020148028 -0.03385627 -0.047916748
0.022831969 -0.089005694 0.00906706 -0.05149419 -0.04200035 -0.07932296 -0.04449587 -0.026821194
-0.03123645 -0.005222379 0.015070716 0.009922444 -0.03922106 -0.030504277 -0.051837146 0.011492005
-0.059246723 -0.022812903 0.016864441 0.0014475014 -0.06839991 -0.04435982 -0.06409893 -0.028493764
-0.07459317 0.017593496 -0.08465931 0.00082048 0.02511923 -0.080241136 -0.07700339 -0.049312573
-0.043550555 -0.05538874 -0.06091463 0.0076943142 -0.08710383 -0.0061425692 -0.026127905 -0.04840369
-0.07333834 -0.07313552 0.007990708 -0.060495898 -0.021068523 0.002832809 0.019586815 -0.018871496
-0.005420708 0.021253452 -0.010650114 -0.010269161 -0.00629056 -0.06184164 -0.007982434 -0.08410278
0.018341355 -0.046923183 0.0020711992 -0.033513788 0.015316048 -0.05270311 -0.013308261 -0.06339635
-0.036400486 -0.047876604 0.007563528 -0.051477555 -0.006705857 0.005417164 -0.004059947 0.010846187
-0.047659274 -0.045449782 -0.13328438 0.01577536 -0.031879213 -0.009714836 -0.026131207 -0.06197735
-0.0135169 -0.032358296 -0.087968804 -0.018306851 0.05743456 0.032012157 -0.018180417 -0.070805185

model.6.weight f4 [64, 128]
00000000: 7100 e23b c317 1abe 2461 bbbd 726a 83bd
00000010: 0237 bfbb ce2f 22bd d20f 83bd b04d 4fbd
00000020: 1c8e 593e ed22 e5be 3eef 233d c564 94bd
00000030: e3a7 973e 88c5 833d 2df3 d53d 19e7 abbd
00000040: 172c f7bc 9783 c53d 3f45 c23d 6117 2e3d
00000050: 1a27 c1be 4939 b03d ee89 8cbc 2523 9fbd
00000060: b05f 80bd 0f42 08be 3628 d03d 46b9 b0bd
00000070: 9204 7bbc 2f46 443c c6a4 16be f5e7 773b
00000080: 0ce9 243d bc11 24bf 13ab 69bd 397e 71bd
00000090: 8e66 053d 6945 7abc 72be 54bd 46f6 acbd
000000a0: 0e1d b13d 5374 88be b1b4 01bd f4b3 e1be
000000b0: e09d 3739 44ba 8ebd 28cf 06bc bc56 cc3d
000000c0: 8fc6 f739 595a 3fbe b3c6 533b 44ee 21be
000000d0: 1997 afbd 5dbd 82bc 5af2 093d eed5 eabd
000000e0: 6c1d d13d d0f2 bcbd 206c 973c d40b cebd
000000f0: fd2b cb3d 6eae bbbc 1c7c f43d cebf 0ebc
00000100: a0fc 24bf 914b 53bc b3da 8c3d a579 e5bb
00000110: e959 513d d775 4f3d cc09 e23c 4ba6 3d3e
00000120: 86bc a5bd f795 3d3a 043d 69bc adbf d33e
00000130: 8376 d7be 4300 67be ba1c 08be eb4c f23b
00000140: ace0 68bd 24e6 113d 7d52 c8bc 2428 193d
00000150: ca4d bd3c c82f 24bc e728 61bd d29d dd3c
00000160: ff67 1abe 32a3 c6be 2253 bdbd 9822 70bd
00000170: 8130 15bd 3466 10bf 12e3 1d3d 4fb9 92be
00000180: 7139 423e 02a5 c93d 952d 10be 48fc 093b
00000190: a6b5 9a3c 0bc8 843d f67e 8fbd 8db1 043f
000001a0: 1856 56bd d5ff 81bd e0e6 e73c d38a 9e3d
000001b0: 57df 583d c9c2 833e 4ee6 95be d94e 5b3d
000001c0: ef68 c83c a85b c0bc 7e36 13bf 0eb5 b8bd
000001d0: 3d68 2cbc 8a1a 133c f444 c0be b970 87bc
000001e0: dc39 0dbc 501c b5bd 3de0 61bb c44e a0bc
000001f0: 1002 6ebc a990 093e 6ea4 e5bc 3818 403b
00000200: db8f eebc f704 bd3d 097c 2b3e d4f0 503c
00000210: 7f95 5b3d ae59 903c 4b91 9e3c 254b 143d
00000220: cc36 79bd 8078 a8bc b345 9cbd c915 373d
00000230: b8a4 fe3e e8f3 ba3d f8a3 78bd f377 3e3c
00000240: 483a c23d 08d0 a73a 0153 3c3d d4a1 97bd
00000250: 2a39 963d f441 a03d bcc2 963d 8966 b5bc
00000260: 2be8 173e ff5e fc3d e5b9 69bd 1940 e43d
00000270: 230e 683d 29f3 e5bd 0540 963d 1906 7cbb
00000280: 87aa c5bc ee65 57bc a512 97bd d4c3 9e3d
00000290: 0675 8c3d 08ba 8bbd ed99 d03c a933 52bd
000002a0: 30b6 96bc 4b62 c8bd cbd6 213d 4cb0 d43c
000002b0: 8a6a 32bd aed4 dcbd d587 4dbd 2b7d f3bc
000002c0: b409 713d b1d7 5a3c 22b3 8cbd e859 753d
000002d0: 2a03 653d 7e1a 303c 682e e0bc f763 543c
000002e0: ac03 c0bd e7d8 8c3c 7002 4dbc ee0f 9c3d
000002f0: 1771 edbd d48a b8bd b17b c73c 5767 7b3d
00000300: 05ea cc3d 4297 d53d d12a 053d baf5 9e3d
00000310: f07b 4abd 0959 28bd a766 25bd 6a76 98bd
00000320: 6978 8c3d e928 113d 42d8 b63d 5b01 c53e
00000330: 34d3 493c ec61 273e f198 c03d 70e6 e33d
00000340: 0390 f8bc 0689 9bbc 2851 84bd 0d6e 49bc
00000350: 4476 573d 98b3 9a3c efbb 853c 0b71 a53d
00000360: 4260 263e 86f7 493c d201 943c 7258 d8bc
00000370: c089 293e 0792 e93d 7cc3 f83b d048 f63d
00000380: a829 91bc 248d 29bc ac1d 0c3e 613d 6ebc
00000390: 5897 80bd 7bf4 c4bd cb89 b0bc 0d8c d23d
000003a0: 300c 7a3d 67cd 933d 90b1 85bd 4f83 54bd
000003b0: 55c0 2f3d 740e 88bd 99c0 0c3e 8834 a63d
000003c0: e52c 5dbd 2665 cbbc 4456 1e3d 33dd 913b
000003d0: 6a3c aa3c fc49 cabc 8159 b83d c781 c13c
000003e0: 99d6 03bd c193 ea3c f0c2 fbbb ea1f a93d
000003f0: e1ef e73c cd48 8fbd 188f bb3c 1352 fb3d
0.0068970253 -0.15048127 -0.091493875 -0.06416787 -0.005835415 -0.03959637 -0.06399502 -0.050611198
0.21245617 -0.4475321 0.04002308 -0.07245783 0.29620275 0.064341605 0.10446773 -0.08393688
-0.03017239 0.096442394 0.09485864 0.042502765 -0.37725145 0.08604676 -0.017155614 -0.07770375
-0.06268251 -0.1330645 0.1016392 -0.08629088 -0.015320914 0.011979624 -0.14711294 0.0037827466
0.040261313 -0.6408956 -0.057047915 -0.058958266 0.032568507 -0.015275338 -0.051939435 -0.084454104
0.0864812 -0.26651248 -0.03166646 -0.44082606 0.00017511053 -0.06969121 -0.008228101 0.09977481
0.0004725945 -0.18686809 0.003231448 -0.15813547 -0.085737415 -0.015959436 0.03367839 -0.11466585
0.1021069 -0.09226 0.018484175 -0.1006085 0.099204995 -0.022910323 0.119377345 -0.008712722
-0.64447975 -0.012896434 0.06877651 -0.0070030265 0.051111136 0.05064949 0.027592562 0.18520467
-0.080925986 0.00072321243 -0.014235739 0.41357175 -0.42082605 -0.22558694 -0.13292208 0.0073944232
-0.05685489 0.03561987 -0.024453396 0.037391797 0.023108382 -0.010021158 -0.05497065 0.027052794
-0.15078734 -0.38796383 -0.09244372 -0.05862674 -0.03642321 -0.5640595 0.03854663 -0.28657004
0.18967225 0.09845926 -0.14079888 0.0021054912 0.018885445 0.06483468 -0.07006638 0.5183342
-0.0523282 -0.06347624 0.028308332 0.07741322 0.05294737 0.25734547 -0.2927727 0.05354199
0.024464099 -0.023481205 -0.57505023 -0.090189084 -0.010522899 0.008978495 -0.37552607 -0.016533243
-0.008619752 -0.08843291 -0.0034465932 -0.019568808 -0.014526859 0.1343409 -0.028032508 0.002931131
-0.02912133 0.092294626 0.16746534 0.01275273 0.053609367 0.017620888 0.01935639 0.036204476
-0.060843274 -0.020565271 -0.076304816 0.04469851 0.49735045 0.09128553 -0.060703248 0.011625278
0.094837725 0.0012803087 0.045977596 -0.07403913 0.07335122 0.078250796 0.073613614 -0.02214362
0.14834659 0.123228066 -0.05706205 0.11145038 0.056654107 -0.1122802 0.073364295 -0.0038455783
-0.024129165 -0.0131468605 -0.07376603 0.07752195 0.06858258 -0.06822592 0.025464023 -0.0513188
-0.01839742 -0.09784373 0.039511483 0.025962971 -0.043558635 -0.10782753 -0.050178368 -0.02972277
0.058847144 0.013357089 -0.06870104 0.059900194 0.05591122 0.010748504 -0.027365878 0.012963287
-0.093757 0.01719327 -0.012512788 0.07620226 -0.11593836 -0.09010854 0.024350973 0.06137785
0.10005573 0.10429241 0.032511536 0.07761712 -0.049434602 -0.041100536 -0.0403811 -0.07444461
0.06858904 0.035439406 0.08927967 0.38477597 0.012318421 0.16345948 0.09404171 0.11127937
-0.030342108 -0.018986236 -0.06460792 -0.012294305 0.05260302 0.018884465 0.016324965 0.08078202
0.16247657 0.012327081 0.018067274 -0.026409362 0.16556454 0.11404806 0.007591663 0.12025607
-0.017720059 -0.010348592 0.13683194 -0.014541001 -0.062788665 -0.096169434 -0.02155008 0.10280619
0.06104678 0.07216912 -0.06528008 -0.051883038 0.04290803 -0.06643382 0.13745345 0.08115488
-0.053997893 -0.024828505 0.038656488 0.004451418 0.02078076 -0.024693482 0.090014465 0.023621453
-0.03218708 0.028634908 -0.0076831505 0.0825804 0.028312625 -0.069963075 0.02289538 0.12271514

model.6.bias f4 [64]
00000000: 7f52 203d 92ce d4bd 5d73 fe3c ba33 00be
00000010: d6d9 103d 6b7b eebd 561d bb3d 8636 5e3d
00000020: 615f e9bd 0316 773d d39b d2bd 8641 dbbd
00000030: dbc2 e43c a1ec dbbd 7997 de3d 4922 20be
00000040: 0664 ffbd b1e0 393d 7f72 0dbe b7d5 bb3d
00000050: 802a 453d 6f2b 8e3d 5b0d a33d 89f9 6b3d
00000060: ad0a 6ebd 6677 f1bb 787c cbbd 8d54 263d
00000070: 98f7 dcbd 252d 853d a506 33be 3f87 0e3d
00000080: 52fe c13d 2911 9c3d fc99 103d 496f 93bd
00000090: a124 fb3c ab2d 0abe db43 7c3d 6b68 0cbe
000000a0: 7f36 f33c c03e a43d 92ff 303d 2983 ffbd
000000b0: a31a 563d 329a e9bb 2c82 753d c2b9 2fbc
000000c0: e853 c93d cced 003d a844 06be d8d9 7ebd
000000d0: 3b0b d73d 2d0d 11be b941 783d ac11 09be
000000e0: ce9a ebbc 5a4f 88bd a4c8 04be 080a 06be
000000f0: 43f4 cbbd cc6c f0bd 249b cabd 83b8 9c3d
0.039141174 -0.10390963 0.031060869 -0.12519732 0.035363995 -0.11644634 0.09136455 0.054251216
-0.11395145 0.060323726 -0.10283627 -0.10705857 0.027924946 -0.10738493 0.10868735 -0.15638079
-0.1247025 0.045380298 -0.13813208 0.09171622 0.048136234 0.06941878 0.07961532 0.057611022
-0.05811565 -0.0073689697 -0.0993585 0.040607978 -0.10789412 0.06502751 -0.17483003 0.03479695
0.09472336 0.076204605 0.0353031 -0.0719896 0.030657114 -0.13493983 0.06158815 -0.13711707
0.029689072 0.08019781 0.04321248 -0.12476189 0.052271497 -0.007128977 0.059938595 -0.01072544
0.09830457 0.03147678 -0.13112128 -0.06221947 0.10500189 -0.14165182 0.060609553 -0.13385648
-0.02876034 -0.0665576 -0.12967163 -0.13089764 -0.099586986 -0.11739501 -0.09892872 0.0765238

model.9.weight f4 [1, 64]
00000000: 3442 20bf 3a4f 6ebe 704e 28bf 139b 15be
00000010: 7fef 0abf 9afc 67be b187 ae3d 9012 003e
00000020: 8b2a 7cbe 1830 1b3e 9518 67be e2d2 75be
00000030: 6b26 46bf f690 bdbd f4de 593e cbe4 2cbe
00000040: 4595 96be 7c46 2dbf dc30 00be 87c9 ff3d
00000050: 5483 903e 4f7b d8be 8034 b13d 34a8 28bf
00000060: cfd4 1d3d dcce 4d3f 0228 8fbe 9055 99be
00000070: edb3 64be 4689 10bf 3338 d9bd 0da9 28bf
00000080: a116 c23d 7410 1b3e 3336 14bf 5cd9 343d
00000090: b40e 683e 2dcc 25be 4a01 f73d 0e41 fabd
000000a0: 0d7b 033e 17d7 2c3e f5cd 0a3e 0a10 aebe
000000b0: cd5f ffbe 8bb2 343f e168 1ebf 211b 863f
000000c0: 12a1 e53d 3257 af3e cb53 86be f6bf 6a3d
000000d0: 8e38 a1bd 6339 57be e456 10bf 6616 96bd
000000e0: 744c 39bc 0b1c 72be 5622 64be a84f 97be
000000f0: 518d 7abe 7863 743d 063f 1bbe 0746 153e
-0.6260102 -0.2327241 -0.65744686 -0.14609937 -0.5427169 -0.22654954 0.08521975 0.12507081
-0.24625604 0.15155065 -0.22567971 -0.24006227 -0.7740237 -0.09256165 0.21276456 -0.16884153
-0.2941076 -0.67685676 -0.12518638 0.1248961 0.28225195 -0.42281577 0.08652592 -0.6588166
0.03853303 0.8039377 -0.2796021 -0.29948092 -0.22334261 -0.5645946 -0.10606422 -0.6588295
0.09476972 0.15142995 -0.578952 0.044152603 0.22661859 -0.16191168 0.12060793 -0.122194394
0.12839909 0.16878925 0.13555129 -0.33996612 -0.49877778 0.70584935 -0.6187878 1.0477029
0.11212362 0.34246212 -0.26235804 0.057311974 -0.07872115 -0.21017985 -0.56382585 -0.07328491
-0.011309732 -0.2364351 -0.22278723 -0.2955296 -0.2446797 0.059665173 -0.1516076 0.14577495
