Model_badr/generator34_params.pt (torch_old, 52228 bytes, 8 tensors)

model.0.weight f4 [64, 2]
-0.34608483 0.4605382 -0.52388424 -0.26948667 -0.62365806 0.26993927 -0.7886509 0.054077856
-0.61411893 0.24533768 -0.48438904 0.55292714 -0.632372 0.27402523 -0.64175075 -0.078394435
-0.337339 0.50170153 -0.81630164 0.39480707 -0.84730947 0.11658201 -0.18648249 0.19114207
-0.47995055 0.39363936 0.55014783 -0.47668424 0.51944697 0.0903268 -0.6147584 0.16890505
-0.062165733 0.18120435 -0.1480403 0.085497074 -0.81926167 -0.07020432 -0.25123262 0.48333028
-0.5874358 0.24983723 0.7066211 -0.23827577 -0.7636473 0.23301734 -0.9565567 0.36766523
-0.40883014 0.4819773 -0.7536906 0.18868758 -0.60685074 0.18253613 0.07033569 0.2653898
-0.5981474 0.15253325 0.2402985 0.04433393 -0.53767884 0.087250225 -0.13973865 0.13913172
-0.49734634 0.5891781 -0.60424596 0.43580246 0.23719302 -0.2023255 -0.94053125 0.4210735
-0.9247215 0.62664515 -0.7270998 -0.12426364 -0.59897643 -0.16851899 -0.7228069 0.20709759
-0.30027503 0.47842932 -0.5938644 -0.00471306 -0.23440525 -0.14006723 -0.77157164 0.16019003
-0.35519475 0.31484246 -0.5266014 0.40891504 0.08761673 -0.026863003 0.19189596 -0.41687813
0.31725854 -0.25390217 -0.76957566 0.47002533 -0.5866696 0.15784232 -0.87326074 0.29293522
0.65892994 0.22866006 -0.056906223 -0.040877305 -0.4497385 0.21035697 -0.4903988 0.37802675
-0.6569887 0.15639296 0.73736566 -0.52931863 -0.7718331 0.27707067 -0.5069175 0.17074698
0.79054683 -0.3983194 -0.1385071 -0.3290085 -0.21849787 0.20390701 0.3339021 -0.4519594
00000000: 0832 b1be aacb eb3e 471d 06bf 28fa 89be
00000010: 0ea8 1fbf 7b35 8a3e 06e5 49bf be80 5d3d
00000020: e636 1dbf cd39 7b3e d701 f8be a28c 0d3f
00000030: 22e3 21bf 094d 8c3e c749 24bf 438d a0bd
00000040: b3b7 acbe 836f 003f 25f9 50bf 2724 ca3e
00000050: 46e9 58bf 8dc2 ee3d 44f5 3ebe bfba 433e
00000060: 14bc f5be 198b c93e 7dd6 0c3f f50f f4be
00000070: 7afa 043f 42fd b83d ce60 1dbf 72f5 2c3e
00000080: 7fa1 7ebd a28d 393e e097 17be 1719 af3d
00000090: 22bb 51bf 48c7 8fbd 90a1 80be 1177 f73e
000000a0: 3162 16bf 55d5 7f3e 1fe5 343f 90fe 73be
000000b0: 647e 43bf 199c 6e3e e6e0 74bf 9e3e bc3e
000000c0: 2f52 d1be bbc5 f63e def1 40bf 5137 413e
000000d0: 925a 1bbf c0ea 3a3e 290c 903d 2ce1 873e
000000e0: 3020 19bf ad31 1c3e cf10 763e 7f97 353d
000000f0: 52a5 09bf 3fb0 b23d a617 0fbe 8c78 0e3e
00000100: 2ea4 febe 60d4 163f ddaf 1abf 8021 df3e
00000110: bae2 723e 6a2e 4fbe a8c6 70bf f296 d73e
00000120: 8cba 6cbf d16b 203f 3623 3abf ef7d febd
00000130: 8556 19bf 3e90 2cbe df09 39bf 6411 543e
00000140: a6bd 99be b0f4 f43e 7f07 18bf 0370 9abb
00000150: ee07 70be c96d 0fbe b885 45bf db08 243e
00000160: 16dc b5be 0833 a13e 59cf 06bf 505d d13e
00000170: 6670 b33d cd0f dcbc 6080 443e 0d71 d5be
00000180: b66f a23e 77ff 81be e902 45bf 29a7 f03e
00000190: fb2f 16bf 6ba1 213e 048e 5fbf 9bfb 953e
000001a0: a2af 283f dd25 6a3e 8016 69bd f66e 27bd
000001b0: 2044 e6be d167 573e 8d15 fbbe b98c c13e
000001c0: 6930 28bf 7a25 203e ffc3 3c3f 6d81 07bf
000001d0: db96 45bf 35dc 8d3e 58c5 01bf 4cd8 2e3e
000001e0: 4761 4a3f 85f0 cbbe ced4 0dbe cd73 a8be
000001f0: e8bd 5fbe 00cd 503e 37f5 aa3e 3967 e7be

model.0.bias f4 [64]
-0.50409883 -0.19698606 -1.007367 -0.48041183 -0.30599737 -0.7174096 0.0009819551 0.46862116
-0.6662195 0.045223232 -0.49243557 -0.5096877 -0.97274464 0.39529908 -0.027550144 -0.29679224
0.14501381 -0.62118924 0.41858038 -0.73570377 -0.05219899 -0.38564384 -0.38903883 0.06309081
-0.16384192 -0.054143157 -0.4191776 -0.7670569 -0.11079831 0.028808182 -0.62655514 -0.5107143
-0.7154788 0.28507718 -0.4011301 0.16192839 -0.44038945 -0.48616472 -0.7127359 -0.4588519
-0.3366795 -0.56045175 0.039813988 -0.90426266 0.09817699 -0.9516782 0.08342122 -1.0359316
-0.5297717 -0.035126843 -0.13512504 -0.27726048 -0.5885816 -0.26209998 -0.15716544 0.19145873
0.06970619 -0.83267766 -0.4984063 -0.7589323 -0.7543078 -0.38347024 0.22346522 -0.73731977
00000000: 9f0c 01bf b7b6 49be 67f1 80bf 8af8 f5be
00000010: b0ab 9cbe 28a8 37bf f2b4 803a 1def ef3e
00000020: 5c8d 2abf ff3b 393d 8420 fcbe e57a 02bf
00000030: cb05 79bf a464 ca3e d7b0 e1bc 27f5 97be
00000040: 807e 143e 4206 1fbf 2b50 d63e 1557 3cbf
00000050: 9cce 55bd 1c73 c5be 1930 c7be c135 813d
00000060: 2dc6 27be 37c5 5dbd 729e d6be d75d 44bf
00000070: 39ea e2bd 23ff eb3c eb65 20bf 2cbe 02bf
00000080: 9e29 37bf a3f5 913e ed60 cdbe 8ed0 253e
00000090: ba7a e1be 95ea f8be dc75 36bf a3ee eabe
000000a0: 4161 acbe c479 0fbf fe13 233d c27d 67bf
000000b0: 0511 c93d 2fa1 73bf bfd8 aa3d 6899 84bf
000000c0: 1e9f 07bf 2ae1 0fbd 385e 0abe 16f5 8dbe
000000d0: 49ad 16bf f831 86be faef 20be c20d 443e
000000e0: 1ec2 8e3d 5d2a 55bf 1c2f ffbe 6349 42bf
000000f0: 511a 41bf 3656 c4be 11d4 643e fdc0 3cbf

model.2.weight f4 [128, 64]
-0.06238451 -0.110385284 -0.0034508335 -0.14054354 -0.040312033 -0.18145071 0.0068190624 -0.16226098
-0.20804022 -0.060632646 -0.036235586 0.0072915917 -0.15297973 -0.17460515 -0.2017573 -0.041677844
-0.031740278 -0.032381423 0.010883129 -0.14502901 0.032869227 0.013406487 -0.0646411 -0.19360706
-0.20924328 -0.03086114 -0.060738657 -0.04700322 -0.13025387 -0.046051424 -0.09488381 -0.08876941
-0.0067091957 -0.11304414 -0.07064473 -0.058970843 -0.15776213 0.018753741 -0.09513592 -0.19616662
-0.0143532995 -0.08478316 -0.2190619 -0.03244009 -0.012728009 0.016856706 -0.12511426 -0.09691429
-0.01776638 0.043514833 0.011062575 -0.103383705 -0.053518847 -0.04097727 -0.013076998 0.0042636115
-0.12987 -0.16374642 -0.11725988 -0.039124507 0.005958439 -0.072325684 -0.0793583 -0.021693295
-0.09910726 -0.0789602 0.06395425 -0.08503438 -0.032944504 0.055165716 -0.068036 -0.079274185
-0.004949253 -0.0612571 0.046701986 -0.08122099 0.041420363 -0.044393826 -0.12538674 0.06534734
0.07596407 -0.15410446 -0.02734613 -0.12846285 -0.089795806 -0.081380695 -0.010295936 0.08808
0.04733087 -0.017318558 -0.04716649 -0.037819553 -0.07504117 0.064404204 0.069552 -0.010342013
0.009103764 -0.10898691 0.039975084 -0.07644106 0.0010802527 0.049752552 0.065827854 -0.07182991
-0.135833 0.05246657 -0.14121364 -0.086728185 0.038472243 -0.12226637 -0.08051942 -0.11225786
-0.052450392 -0.110877715 -0.051860347 -0.008584453 0.00312407 0.0043905475 -0.0132755805 0.08171235
-0.04182061 0.052684452 -0.116405785 -0.06306616 0.043085 -0.032693878 0.059829578 -0.022046173
-0.0722364 -0.20039824 -0.09091753 0.00709475 -0.18322319 -0.14340201 -0.026276609 -0.12661329
-0.14353798 -0.056683157 -0.20283967 -0.11597637 -0.06448708 -0.025622185 -0.1155037 -0.17090487
-0.07212679 -0.018378021 -0.05009186 -0.058348306 0.0029350563 -0.21547665 -0.10648985 -0.1054091
-0.031067848 0.02492234 -0.055842575 -0.00457351 -0.119605534 -0.0573521 -0.16685899 -0.12681457
-0.04865561 -0.19840412 -0.19305694 -0.18436727 -0.06726798 -0.1307483 0.00868794 -0.05317131
-0.025768097 -0.04342735 -0.14830239 -0.048759744 -0.12499971 -0.094410524 -0.13851407 -0.21379074
-0.23206575 -0.08389447 -0.0869188 -0.16177246 -0.1655757 -0.19455238 0.025620764 -0.009972671
-0.043996103 -0.1854321 -0.1657035 -0.15426585 -0.19095954 -0.16158263 -0.03996274 -0.14837399
-0.16563863 -0.04182004 -0.13486403 -0.03647033 -0.10357291 -0.20323801 -0.18738234 -0.08862054
-0.037881795 -0.035619408 -0.040272202 -0.029812334 -0.017280445 -0.18133485 -0.07794447 -0.040944014
-0.13694622 0.011128774 -0.091635026 -0.16855106 -0.22180356 -0.031943824 -0.16000597 -0.023041947
-0.16404693 -0.15739074 -0.082256936 0.00083130284 -0.102248326 -0.10427661 -0.18203482 -0.2177864
0.008480311 -0.10929602 -0.17868225 -0.116066925 -0.2191821 -0.22169451 -0.18536565 -0.07880962
-0.1983856 -0.08840349 -0.07106237 -0.09201146 -0.12918292 -0.033564255 -0.01938855 -0.14067796
-0.05096093 -0.124688044 -0.11532959 -0.099512905 -0.021821728 -0.003986395 -0.18966359 -0.015692033
-0.21217084 -0.16585216 -0.06796632 -0.0041111554 -0.05078541 -0.009832988 -0.008483728 -0.22245193
00000000: e686 7fbd ae11 e2bd 6127 62bb a5ea 0fbe
00000010: 3b1e 25bd 37ce 39be 7172 df3b be27 26be
00000020: 7f08 55be f059 78bd c46b 14bd 4eee ee3b
00000030: b8a6 1cbe b1cb 32be 7799 4ebe 63b6 2abd
00000040: 1802 02bd 62a2 04bd 274f 323c 7c82 14be
00000050: e2a1 063d e2a6 5b3c 8e62 84bd ee40 46be
00000060: df43 56be 80d0 fcbc 19c9 78bd 7386 40bd
00000070: 4561 05be 6ba0 3cbd 7152 c2bd bdcc b5bd
00000080: d0d8 dbbb b083 e7bd 2fae 90bd 698b 71bd
00000090: 658c 21be 72a1 993c 9fd6 c2bd e7df 48be
000000a0: 1a2a 6bbc cba2 adbd c351 60be e6df 04bd
000000b0: 2489 50bc 1317 8a3c f41d 00be 007b c6bd
000000c0: cd8a 91bc 9c3c 323d cd3f 353c d6ba d3bd
000000d0: 9436 5bbd c8d7 27bd e840 56bc c4b5 8b3b
000000e0: a4fc 04be 24ad 27be f325 f0bd 0541 20bd
000000f0: 023f c33b 7d1f 94bd 9b86 a2bd 23b6 b1bc
00000100: bff8 cabd e3b5 a1bd 72fa 823d 8126 aebd
00000110: d1f0 06bd 72f5 613d 7556 8bbd 815a a2bd
00000120: 582d a2bb bae8 7abd 954a 3f3d 3157 a6bd
00000130: 66a8 293d 4dd6 35bd 6265 00be d4d4 853d
00000140: 0d93 9b3d 8fcd 1dbe fe04 e0bc c48b 03be
00000150: dde6 b7bd ecaa a6bd 49b0 28bc 4963 b43d
00000160: 04de 413d a6df 8dbc a631 41bd ade8 1abd
00000170: 2faf 99bd 5ae6 833d 4771 8e3d 8c71 29bc
00000180: f427 153c 8734 dfbd eabc 233d 218d 9cbd
00000190: 4497 8d3a 55c9 4b3d c1d0 863d 8f1b 93bd
000001a0: ce17 0bbe 30e7 563d 4f9a 10be 8c9e b1bd
000001b0: 1295 1d3d ca66 fabd 5ee7 a4bd 73e7 e5bd
000001c0: 39d6 56bd db13 e3bd 846b 54bd cea5 0cbc
000001d0: 32bd 4c3b 95de 8f3b d281 59bc ce58 a73d
000001e0: 174c 2bbd a7cb 573d 2866 eebd d528 81bd
000001f0: e679 303d 04ea 05bd dc0f 753d 2d9a b4bc
00000200: adf0 93bd 3235 4dbe f832 babd 147b e83b
00000210: dc9e 3bbe fad7 12be 0b42 d7bc eaa6 01be
00000220: 9ffb 12be 992c 68bd 34b5 4fbe 0585 edbd
00000230: cd11 84bd 9ee5 d1bc 348d ecbd b001 2fbe
00000240: 36b7 93bd 818d 96bc 1f2d 4dbd a2fe 6ebd
00000250: 135a 403b e9a5 5cbe 5a17 dabd bae0 d7bd
00000260: 0082 febc ef29 cc3c 2fbb 64bd 62dd 95bb
00000270: bff3 f4bd 09ea 6abd 15dd 2abe aedb 01be
00000280: 1b4b 47bd 732a 4bbe b8b0 45be c6ca 3cbe
00000290: cbc3 89bd e2e2 05be dd57 0e3c 29ca 59bd
000002a0: 9e17 d3bc e1e0 31bd 95dc 17be 4cb8 47bd
000002b0: d9ff ffbd 4e5a c1bd a2d6 0dbe f6eb 5abe
000002c0: a5a2 6dbe ddd0 abbd 7c02 b2bd aea7 25be
000002d0: ad8c 29be bd38 47be a3e2 d13c 6a64 23bc
000002e0: 4235 34bd eae1 3dbe 2eae 29be def7 1dbe
000002f0: e68a 43be eb75 25be f8af 23bd 5aef 17be
00000300: 2c9d 29be 7e4b 2bbd cc19 0abe ea61 15bd
00000310: 091e d4bd a01d 50be 28e1 3fbe b07e b5bd
00000320: f129 1bbd a8e5 11bd 77f4 24bd ff38 f4bc
00000330: b88f 8dbc d8af 39be 5aa1 9fbd e9b4 27bd
00000340: a13b 0cbe 7655 363c 25ab bbbd a698 2cbe
00000350: 7920 63be 87d7 02bd 9bd8 23be 77c2 bcbc
00000360: ebfb 27be 0a2b 21be 5376 a8bd caeb 593a
00000370: 9267 d1bd fa8e d5bd 5667 3abe 6603 5fbe
00000380: 01f1 0a3c 97d6 dfbd 7bf8 36be 7fb4 edbd
00000390: 4671 60be e303 63be 7ed0 3dbe f066 a1bd
000003a0: 9825 4bbe e40c b5bd 2689 91bd 8170 bcbd
000003b0: 8748 04be ac7a 09bd bdd4 9ebc e20d 10be
000003c0: 68bc 50bd 725c ffbd ec31 ecbd 6ccd cbbd
000003d0: 7bc3 b2bc 4ea0 82bb 2c37 42be 948c 80bc
000003e0: 5043 59be 26d5 29be ed31 8bbd dfb6 86bb
000003f0: 5d04 50bd 8a1a 21bc 56ff 0abc 70ca 63be

model.2.bias f4 [128]
-0.043496817 -0.008441028 -0.09949603 -0.08083555 0.026918666 -0.17498046 -0.17218196 -0.09745188
0.07182566 -0.22545625 -0.022433441 -0.0115841 -0.065468214 -0.2174194 0.0064632986 -0.23291856
-0.22365347 -0.043549024 -0.0058670114 -0.023362692 -0.04690487 -0.22547236 -0.26979193 -0.033578835
-0.07464364 -0.23652156 -0.16894293 -0.02788922 -0.06212697 -0.19670318 -0.1544145 -0.084888294
-0.096404 -0.1659125 -0.042703517 -0.0014992725 -0.005852258 -0.1326629 -0.18594654 -0.15314722
-0.07215123 -0.027541332 -0.13922992 -0.026186084 -0.009319597 -0.16850652 -0.063110396 -0.094131164
-0.023030853 -0.03586609 -0.12777936 -0.21780217 -0.018313384 -0.1127031 -0.24510337 -0.15997408
-0.016894683 -0.1743153 -0.04611669 -0.058141124 -0.2198986 0.047199868 -0.045385066 -0.013925543
-0.060727242 0.018961279 -0.11245248 -0.24214527 0.041141573 -0.08063759 -0.06600445 -0.15361689
-0.07440347 -0.004235075 -0.14528635 0.021096693 -0.15132843 -0.01521247 0.025476215 -0.037369326
-0.16292958 -0.14013533 -0.12226308 -0.14108273 -0.008565614 -0.04556517 -0.21967463 -0.13509038
-0.07511174 -0.023249887 0.0123521155 -0.06520153 -0.051909838 -0.040847726 -0.082691565 -0.092389524
-0.1385838 -0.0654241 -0.070538096 -0.0483952 -0.15594141 -0.026358282 -0.13610633 0.033687055
-0.06584083 0.03253101 -0.054415837 -0.10712779 -0.06700936 0.004186952 -0.17418897 -0.018168593
-0.21418415 -0.041869815 -0.050203156 -0.08227415 -0.1610979 0.00018283074 -0.07212705 -0.056284618
-0.09249771 -0.18341199 0.0023107051 -0.1427085 -0.11136031 -0.072536096 -0.17882802 -0.21007955
00000000: b829 32bd 3d4c 0abc 93c4 cbbd 1c8d a5bd
00000010: 8984 dc3c 142e 33be 7850 30be da94 c7bd
00000020: 5519 933d 01de 66be 56c6 b7bc 3dcb 3dbc
00000030: 3314 86bd 31a3 5ebe 14ca d33b 3482 6ebe
00000040: 6a05 65be 7660 32bd 0f40 c0bb 1e63 bfbc
00000050: 521f 40bd 3ae2 66be 2b22 8abe f689 09bd
00000060: c4de 98bd b532 72be 60ff 2cbe ef77 e4bc
00000070: da78 7ebd 8f6c 49be d61e 1ebe ead9 adbd
00000080: 766f c5bd f7e4 29be e2e9 2ebd 3d83 c4ba
00000090: 4cc4 bfbb c9d8 07be c568 3ebe a0d2 1cbe
000000a0: 06c4 93bd 5c9e e1bc 4a92 0ebe 3384 d6bc
000000b0: 39b1 18bc f98c 2cbe 0640 81bd d7c7 c0bd
000000c0: 33ab bcbc 52e8 12bd 98d8 02be 8807 5fbe
000000d0: f305 96bc e2d0 e6bd 61fc 7abe 3fd0 23be
000000e0: b866 8abc b67f 32be dbe4 3cbd 6325 6ebd
000000f0: 192d 61be a654 413d b1e5 39bd f627 64bc
00000100: 21bd 78bd af54 9b3c 7c4d e6bd eef4 77be
00000110: 1184 283d 5225 a5bd 572d 87bd bf4d 1dbe
00000120: d960 98bd 62c6 8abb f2c5 14be f9d2 ac3c
00000130: d7f5 1abe b93d 79bc 7fb3 d03c 9410 19bd
00000140: 03d7 26be a37f 0fbe 1165 fabd fe77 10be
00000150: ca56 0cbc 8ba2 3abd 63f2 60be 2255 0abe
00000160: 2fd4 99bd 8c76 bebc 8760 4a3c 6188 85bd
00000170: 699f 54bd f24f 27bd 325a a9bd b836 bdbd
00000180: e9e8 0dbe 12fd 85bd 4776 90bd 0c3a 46bd
00000190: 1baf 1fbe 53ed d7bc 755f 0bbe 70fb 093d
000001a0: 8fd7 86bd 3d3f 053d 24e3 5ebd d165 dbbd
000001b0: 343c 89bd b332 893b 985e 32be 4dd6 94bc
000001c0: 1753 5bbe af7f 2bbd d3a1 4dbd 597f a8bd
000001d0: d9f6 24be 41b6 3f39 59b7 93bd b38a 66bd
000001e0: 706f bdbd 5ad0 3bbe 336f 173b 2d22 12be
000001f0: e010 e4bd ce8d 94bd b11e 37be 181f 57be

model.4.weight f4 [32, 128]
0.087768085 -0.00088792865 0.010083459 -0.014587729 0.026770573 -0.08688169 0.00022110432 -0.022990154
0.03270261 -0.028110893 0.044636466 -0.048879564 -0.020016048 -0.024670446 -0.028583707 -0.0961226
-0.11903922 -0.067252904 -0.05018099 0.054741792 -0.0030638764 -0.070842355 0.004769745 -0.06058375
0.0175225 -0.021917732 0.02403367 -0.0915253 0.09677784 0.04185363 0.029502556 -0.002934381
0.060723953 0.031372 -0.12928025 -0.09752948 -0.01731899 -0.07007147 -0.059512906 0.10762788
-0.08472432 -0.06847712 -0.09432515 0.06760043 -0.04622024 -0.11979559 0.0019100033 0.0051503438
-0.11263922 -0.06215096 -0.018313201 -0.12414856 -0.010965835 -0.032447826 -0.051388275 0.045189895
0.04968403 0.07186543 -0.06292285 -0.114542745 0.029027835 0.048423775 -0.093567826 0.021744924
-0.099359564 -0.089726105 -0.0027382036 0.0195378 -0.06567589 0.060168516 0.030924078 -0.034365293
-0.09622865 0.016482247 -0.13790482 0.02684872 -0.10358392 -0.0060263374 -0.12473739 -0.12268603
-0.032433856 -0.1030652 0.042002656 0.06714809 -0.1034822 -0.15192063 -0.004189435 0.011621357
0.03458371 -0.04000111 -0.0002149654 -0.024958758 -0.011871205 0.04357176 -0.08074263 0.048912834
0.08519689 -0.07556378 0.045757025 0.015456826 -0.02647027 -0.058307316 0.015599172 0.09426994
0.058289338 -0.0074947523 0.03775871 -0.0832067 -0.06967446 -0.08283739 -0.063625164 -0.007767832
-0.1051617 0.043628603 0.041570142 0.050075 -0.026183967 -0.05738749 -0.09281699 -0.00042951448
-0.0025362356 -0.030100878 0.017679796 -0.057285164 -0.04890075 -0.086462304 0.05141211 0.0029363814
-0.042331666 -0.10308635 -0.07744247 -0.15370125 -0.1278521 -0.15210922 -0.07368173 -0.13016143
-0.089427285 -0.1923049 -0.024424613 -0.15677695 -0.08071325 -0.08314886 -0.03537962 -0.10003978
-0.060133096 -0.11511658 -0.18844114 -0.2791028 -0.10817397 -0.16102745 -0.11070968 -0.06458188
-0.09324453 -0.1718847 -0.07004512 -0.13496149 -0.08634228 -0.18938306 -0.1725692 -0.067959316
-0.06386879 -0.18492813 -0.052346658 -0.19536631 -0.0758266 -0.08909538 -0.13009194 -0.19083025
-0.11344382 -0.22312786 -0.19698755 -0.12625033 -0.10784994 -0.09944216 -0.1791351 -0.20700583
-0.14454627 -0.0734206 -0.1966587 -0.028203709 -0.16199328 -0.24230784 -0.12442912 -0.24228135
-0.08922829 -0.1279866 -0.08934886 -0.1650642 -0.09985031 -0.18669991 -0.18130371 -0.18358283
-0.03852396 -0.18173498 -0.13559785 -0.17490022 0.009179825 -0.33114958 -0.08100056 -0.11483301
-0.1120456 -0.08107376 -0.059672575 -0.03369589 -0.049065515 -0.091260895 -0.12191647 -0.16893367
-0.1136584 -0.08764346 -0.12319244 -0.17121974 -0.141483 -0.2868997 -0.15098712 -0.20221508
-0.25594547 -0.17104231 -0.15587945 -0.06708768 -0.22312804 -0.17507131 -0.06398605 -0.14214271
-0.11280847 -0.09646891 -0.063785516 -0.05050026 -0.20993249 -0.029922044 -0.038667336 -0.1013623
-0.26667354 -0.11532569 -0.086511135 -0.062310953 -0.15673262 -0.15488043 -0.22092295 -0.11489665
-0.02843387 -0.15473501 -0.12559114 -0.03714829 -0.15116565 -0.0022712648 -0.1577761 -0.115902446
-0.17147641 -0.15640461 -0.15226813 -0.16464446 -0.2017741 -0.087514296 -0.14751175 -0.10122589
00000000: c1bf b33d e2c3 68ba 1835 253c 5f01 6fbc
00000010: f64d db3c 07ef b1bd 3dd8 6739 d955 bcbc
00000020: 2cf3 053d d148 e6bc bad4 363d f035 48bd
00000030: b2f8 a3bc ad19 cabc 6128 eabc eddb c4bd
00000040: d6ca f3bd e4bb 89bd 958a 4dbd ee38 603d
00000050: 51cb 48bb cc15 91bd 854b 9c3b ab26 78bd
00000060: 598b 8f3c d18c b3bc 42e2 c43c 9e71 bbbd
00000070: 7633 c63d b66e 2b3d 58af f13c be4e 40bb
00000080: aeb9 783d ed7f 003d 0b62 04be 89bd c7bd
00000090: 8ee0 8dbc a281 8fbd cec3 73bd 026c dc3d
000000a0: f283 adbd bb3d 8cbd 8b2d c1bd 1872 8a3d
000000b0: 6f51 3dbd 6457 f5bd 1359 fa3a 37c4 a83b
000000c0: 64af e6bd 0192 7ebd 9105 96bc 9a41 febd
000000d0: 0caa 33bc 03e8 04bd 837c 52bd 0a19 393d
000000e0: 7b81 4b3d 2f2e 933d b2dd 80bd 6395 eabd
000000f0: c8cb ed3c 0258 463d 7da0 bfbd 6922 b23c
00000100: 077d cbbd 52c2 b7bd 6f73 33bb bd0d a03c
00000110: 1581 86bd 4373 763d 7e54 fd3c 9fc2 0cbd
00000120: 8713 c5bd c705 873c ec36 0dbe d9f1 db3c
00000130: ce23 d4bd 9578 c5bb 5176 ffbd d042 fbbd
00000140: 5dd9 04bd d913 d3bd fa0a 2c3d f084 893d
00000150: 7aee d3bd 1591 1bbe 8747 89bb 8167 3e3c
00000160: a6a7 0d3d 34d8 23bd 5668 61b9 4f76 ccbc
00000170: 717f 42bc 4d78 323d 645c a5bd d358 483d
00000180: b57b ae3d 2fc1 9abd b86b 3b3d a13e 7d3c
00000190: 2ed8 d8bc a7d3 6ebd ab93 7f3c 9910 c13d
000001a0: cdc0 6e3d 8a96 f5bb e1a8 1a3d 4668 aabd
000001b0: 7cb1 8ebd a6a6 a9bd e94d 82bd 4c89 febb
000001c0: 045f d7bd e8b3 323d 7445 2a3d 711b 4d3d
000001d0: c27f d6bc 250f 6bbd d616 bebd 7530 e1b9
000001e0: f936 26bb 1e96 f6bc 38d5 903c d9a3 6abd
000001f0: 274c 48bd 2613 b1bd 8195 523d 4e70 403b
00000200: f863 2dbd f01e d3bd 289a 9ebd dc63 1dbe
00000210: a9eb 02be 85c2 1bbe 72e6 96bd 0a49 05be
00000220: a725 b7bd 93eb 44be 2016 c8bc 238a 20be
00000230: fd4c a5bd f349 aabd 38ea 10bd a8e1 ccbd
00000240: 1f4e 76bd 3ec2 ebbd b7f6 40be 90e6 8ebe
00000250: 508a ddbd 61e4 24be c2bb e2bd 8143 84bd
00000260: fdf6 bebd 8b02 30be d173 8fbd 5833 0abe
00000270: 39d4 b0bd a2ed 41be fbb5 30be 412e 8bbd
00000280: a4cd 82bd cd5d 3dbe 7369 56bd 1b0e 48be
00000290: fa4a 9bbd a377 b6bd d236 05be 0169 43be
000002a0: 3c55 e8bd a17b 64be 1bb7 49be c447 01be
000002b0: 6ee0 dcbd 55a8 cbbd 316f 37be 56f9 53be
000002c0: f003 14be 8a5d 96bd e660 49be 770b e7bc
000002d0: 91e1 25be 8c1f 78be b2d4 febd 9a18 78be
000002e0: 52bd b6bd eb0e 03be 89fc b6bd 9706 29be
000002f0: 527e ccbd 432e 3fbe aea7 39be 23fd 3bbe
00000300: 4dcb 1dbd bc18 3abe 2ada 0abe 0b19 33be
00000310: fa66 163c 708c a9be 9fe3 a5bd 922d ebbd
00000320: 2a78 e5bd 000a a6bd 3b6b 74bd b404 0abd
00000330: ecf8 48bd fee6 babd 58af f9bd f3fc 2cbe
00000340: bcc5 e8bd 6a7e b3bd 514c fcbd 3a54 2fbe
00000350: ebe0 10be 84e4 92be 5e9c 1abe 7811 4fbe
00000360: 490b 83be b725 2fbe dd9e 1fbe 4465 89bd
00000370: ad7b 64be e545 33be 1e0b 83bd dc8d 11be
00000380: 2108 e7bd 7e91 c5bd fba1 82bd 5cd9 4ebd
00000390: 8bf8 56be 131f f5bc a461 1ebd 0a97 cfbd
000003a0: 6f89 88be e02f ecbd c02c b1bd c539 7fbd
000003b0: 847e 20be fa98 1ebe a039 62be ef4e ebbd
000003c0: 26ee e8bc db72 1ebe f79a 00be ce28 18bd
000003d0: 2bcb 1abe 80d9 14bb 0f90 21be 435e edbd
000003e0: 8397 2fbe 8828 20be 2dec 1bbe 8f98 28be
000003f0: df9d 4ebe b23a b3bd 520d 17be 854f cfbd

model.4.bias f4 [32]
0.051662188 0.0751178 -0.055541 -0.010671138 0.03475937 0.11421086 -0.18285576 -0.0052133794
0.026255786 -0.15427059 0.12732978 -0.027567202 0.14300117 -0.07547668 -0.004267986 0.041967127
0.22292122 0.21973544 0.14622445 -0.051884558 0.1207043 -0.052172493 0.11924806 0.23995994
0.08064633 -0.10000093 0.036720753 -0.08040996 0.08033319 0.048140865 -0.0076686 0.2453105
00000000: bb9b 533d 5cd7 993d f67e 63bd ffd5 2ebc
00000010: d75f 0e3d 62e7 e93d 8a3e 3bbe ffd4 aabb
00000020: 6016 d73c 1cf9 1dbe bd62 023e 9dd4 e1bc
00000030: e66e 123e 8593 9abd 76da 8bbb b9e5 2b3d
00000040: 7645 643e 5402 613e ddbb 153e e784 54bd
00000050: d133 f73d d3b2 55bd 5438 f43d 0fb8 753e
00000060: e729 a53d 4acd ccbd 8068 163d faad a4bd
00000070: ba85 a43d 5b2f 453d e148 fbbb ad32 7b3e

model.6.weight f4 [2, 32]
0.034070253 -0.10311921 -0.28014398 0.029908486 -0.1839237 -0.21416345 -0.1561395 -0.13272741
-0.13005388 -0.01653869 0.02083999 0.030350529 -0.10209945 -0.31843078 0.043302245 -0.0076709073
-0.24571249 -0.15834916 -0.18585882 -0.19923067 -0.16233683 -0.03404539 -0.032133684 -0.17910987
-0.0039322963 -0.1839344 -0.058931947 -0.20780991 -0.08622347 -0.13615742 -0.21454605 -0.14263634
-0.13804618 -0.16179681 0.048299965 -0.2816165 -0.13428779 -0.08136922 -0.048657026 -0.15525207
-0.13967907 -0.078666605 -0.28279847 -0.17472333 -0.16680333 -0.01563959 -0.20124318 -0.16383195
-0.15465865 -0.14209767 -0.09851579 -0.07506621 -0.21196796 -0.18529838 -0.24180359 -0.081847645
-0.17211697 -0.10956831 -0.22751814 -0.024124319 -0.09634242 -0.053157043 -0.07225915 -0.19582793
00000000: 408d 0b3d 2a30 d3bd 086f 8fbe a402 f53c
00000010: 7f56 3cbe aa4d 5bbe 08e3 1fbe b2e9 07be
00000020: d82c 05be 267c 87bc a0b8 aa3c aca1 f83c
00000030: 8419 d1bd 5c09 a3be b25d 313d 3c5c fbbb
00000040: 0e9c 7bbe 4826 22be c651 3ebe 2003 4cbe
00000050: a03b 26be 2e73 0bbd 9c9e 03bd 9468 37be
00000060: 7eda 80bb 4d59 3cbe a062 71bd 1fcc 54be
00000070: ee95 b0bd da6c 0bbe f6b1 5bbe 430f 12be
00000080: fa5b 0dbe 10ae 25be 2fd6 453d 0a30 90be
00000090: bd82 09be e8a4 a6bd 974c 47bd 66fa 1ebe
000000a0: 0808 0fbe f51b a1bd f6ca 90be acea 32be
000000b0: 7ece 2abe 991e 80bc b112 4ebe 90c3 27be
000000c0: d65e 1ebe 0d82 11be a6c2 c9bd 50bc 99bd
000000d0: 210e 59be dcbe 3dbe 5c9b 77be bd9f a7bd
000000e0: 6e3f 30be 5a65 e0bd 84fa 68be 5da0 c5bc
000000f0: 2d4f c5bd 33bb 59bd 9bfc 93bd 1e87 48be

model.6.bias f4 [2]
-0.32625616 -0.20047657
00000000: 0c0b a7be bb49 4dbe
